…
     "execution_count": 15,
     "metadata": {},
     "output_type": "execute_result"
    }
   ],
   "source": [
    "Y"
   ]
  },
  {
   "cell_type": "code",
   "execution_count": 40,
   "id": "f0451424",
   "metadata": {},
   "outputs": [
    {
     "name": "stdout",
     "output_type": "stream",
     "text": [
      "Model: \"sequential_11\"\n",
      "_________________________________________________________________\n",
      " Layer (type)                Output Shape              Param #   \n",
      "=================================================================\n",
      " conv1d_20 (Conv1D)          (None, 4, 16)             64        \n",
      "                                                                 \n",
      " conv1d_21 (Conv1D)          (None, 4, 16)             784       \n",
      "                                                                 \n",
      " conv1d_22 (Conv1D)          (None, 4, 16)             784       \n",
      "                                                                 \n",
      " conv1d_23 (Conv1D)          (None, 4, 16)             784       \n",
      "                                                                 \n",
      " conv1d_24 (Conv1D)          (None, 4, 16)             784       \n",
      "                                                                 \n",
      " conv1d_25 (Conv1D)          (None, 4, 16)             784       \n",
      "                                                                 \n",
      " conv1d_26 (Conv1D)          (None, 4, 16)             784       \n",
      "                                                                 \n",
      " conv1d_27 (Conv1D)          (None, 4, 16)             784       \n",
      "                                                                 \n",
      " flatten_7 (Flatten)         (None, 64)                0         \n",
      "                                                                 \n",
      " dense_23 (Dense)            (None, 32)                2080      \n",
      "                                                                 \n",
      " dense_24 (Dense)            (None, 32)                1056      \n",
      "                                                                 \n",
      " dense_25 (Dense)            (None, 32)                1056      \n",
      "                                                                 \n",
      " dense_26 (Dense)            (None, 32)                1056      \n",
      "                                                                 \n",
      " dense_27 (Dense)            (None, 4)                 132       \n",
      "                                                                 \n",
      "=================================================================\n",
      "Total params: 10,932\n",
      "Trainable params: 10,932\n",
      "Non-trainable params: 0\n",
      "_________________________________________________________________\n"
     ]
    }
   ],
   "source": [
    "#옵티마이저가 뭔지, 각 옵티마이저의 차이점, 활성화 함수의 종류와 차이점, 입력층, 출력층의 의미, lr값 조정, accuracy\n",
…
